…
    "papermill": {
     "duration": 0.041209,
     "end_time": "2022-01-20T10:56:46.643739",
     "exception": false,
     "start_time": "2022-01-20T10:56:46.602530",
     "status": "completed"
    },
    "tags": []
   },
   "outputs": [
    {
     "name": "stdout",
     "output_type": "stream",
     "text": [
      "Model: \"sequential\"\n",
      "_________________________________________________________________\n",
      "Layer (type)                 Output Shape              Param #   \n",
      "=================================================================\n",
      "conv2d (Conv2D)              (None, 64, 64, 32)        832       \n",
      "_________________________________________________________________\n",
      "max_pooling2d (MaxPooling2D) (None, 32, 32, 32)        0         \n",
      "_________________________________________________________________\n",
      "conv2d_1 (Conv2D)            (None, 32, 32, 64)        18496     \n",
      "_________________________________________________________________\n",
      "max_pooling2d_1 (MaxPooling2 (None, 16, 16, 64)        0         \n",
      "_________________________________________________________________\n",
      "conv2d_2 (Conv2D)            (None, 16, 16, 128)       73856     \n",
      "_________________________________________________________________\n",
      "max_pooling2d_2 (MaxPooling2 (None, 8, 8, 128)         0         \n",
      "_________________________________________________________________\n",
      "flatten (Flatten)            (None, 8192)              0         \n",
      "_________________________________________________________________\n",
      "dense (Dense)                (None, 256)               2097408   \n",
      "_________________________________________________________________\n",
      "dense_1 (Dense)              (None, 64)                16448     \n",
      "_________________________________________________________________\n",
      "dense_2 (Dense)              (None, 32)                2080      \n",
      "_________________________________________________________________\n",
      "dense_3 (Dense)              (None, 1)                 33        \n",
      "=================================================================\n",
      "Total params: 2,209,153\n",
      "Trainable params: 2,209,153\n",
      "Non-trainable params: 0\n",
      "_________________________________________________________________\n"
     ]
    }
   ],
   "source": [
    "model.summary()"
   ]
  },
  {
   "cell_type": "code",
   "execution_count": 15,
   "id": "dc52f3f7",
…
